tf_model.tflite (tflite, 11824 bytes, 6 tensors)

arith.constant f4 [3, 32]
-0.047370493 -0.34324914 0.12149476 -0.37768638 -0.38509214 0.383154 0.0043818415 0.09236718
0.22317468 0.27277339 0.004237977 -0.22231883 -0.33803737 0.23338649 -0.32029274 -0.15624163
0.06953735 0.078345686 0.099993736 -0.062333584 0.40348783 -0.3669785 -0.32179505 -0.3196766
0.218241 0.017044753 0.20399132 0.36065224 -0.013944891 -0.25503972 0.0004258178 0.0040858984
0.12901345 0.27638856 -0.10610621 -0.14136177 0.2693871 0.14151141 0.13845237 0.023400174
0.30661482 -0.2961776 -0.12770803 -0.3539997 0.29616964 0.38529983 0.3869236 0.22955951
0.0625515 -0.047999024 -0.11983517 0.31830832 -0.17237023 -0.3503056 0.3127832 0.39324877
0.061370958 0.088714324 -0.18003306 0.18349761 0.015251151 -0.22031091 0.101345226 -0.13522065
0.35580537 -0.14226696 0.2676648 -0.31294793 -0.24063803 0.21936521 -0.1884066 0.18420526
-0.054356012 0.34642166 0.29097152 -0.3802344 0.12380792 -0.19999869 -0.2800441 0.2630433
0.387471 0.16041163 0.3784826 -0.2793098 0.36013934 0.11840102 0.04291663 0.19621626
0.15084803 -0.16862082 0.33365253 0.2683186 -0.15483108 0.046818405 0.021167222 0.38173535
00000000: 9007 42bd 5abe afbe 3fd2 f83d 1c60 c1be
00000010: cc2a c5be c32c c43e 8d95 8f3b 012b bd3d
00000020: e787 643e f4a8 8b3e bade 8a3b 8ca7 63be
00000030: 3c13 adbe defc 6e3e 69fd a3be cefd 1fbe
00000040: 9969 8e3d b473 a03d 84c9 cc3d 8051 7fbd
00000050: f595 ce3e 9be4 bbbe 52c2 a4be a7ac a3be
00000060: 927a 5f3e 70a1 8b3c 1ae3 503e 69a7 b83e
00000070: 1d79 64bc 9194 82be 4c40 df39 00e3 853b
00000080: 1a1c 043e cd82 8d3e 364e d9bd 24c1 10be
00000090: 1bed 893e 5ee8 103e 75c6 0d3e b9b1 bf3c
000000a0: 9efc 9c3e 97a4 97be e5c5 02be 733f b5be
000000b0: 8ca3 973e 0546 c53e da1a c63e a611 6b3e
000000c0: 001b 803d a09a 44bd 246c f5bd 4ff9 a23e
000000d0: d281 30be 415b b3be 1f25 a03e e757 c93e
000000e0: 1d60 7b3d dbaf b53d 965a 38be cce6 3b3e
000000f0: f7df 793c 2f99 61be 168e cf3d 4877 0abe
00000100: 1f2c b63e 6eae 11be 5c0b 893e b63a a0be
00000110: d169 76be 46a1 603e a9ed 40be 4ea0 3c3e
00000120: 69a4 5ebd 2e5e b13e 38fa 943e 15ae c2be
00000130: 028f fd3d 75cc 4cbe f161 8fbe 9dad 863e
00000140: 9962 c63e f242 243e 79c8 c13e b201 8fbe
00000150: 2f64 b83e 3c7c f23d 59c9 2f3d eaec 483e
00000160: e877 1a3e f0aa 2cbe 81d4 aa3e 0e61 893e
00000170: 0a8c 1ebe a8c4 3f3d e266 ad3c d172 c33e

arith.constant1 f4 [32, 64]
0.16428477 -0.19791901 0.07942963 -0.0412212 -0.10407591 -0.154868 -0.23087937 -0.14190525
-0.07351619 -0.10805851 0.18916106 -0.23369801 0.11056572 -0.13800949 0.20453405 0.08276951
0.16921407 -0.19064438 -0.052330196 0.12800473 0.06551778 -0.24120474 -0.18887901 0.00094795227
0.1871143 -0.23832881 0.0076166987 -0.24682593 -0.018354237 -0.088638544 0.24410838 0.15984344
-0.15477741 0.14913332 -0.23722106 0.17656845 0.004106343 0.12516147 0.06830764 0.044734597
-0.022611022 -0.11891413 -0.0869388 -0.074135184 0.0661847 0.22664809 -0.19931412 0.060111105
0.14453894 -0.18536723 -0.1453405 -0.24632168 0.12450266 -0.18388522 0.21448296 -0.09983647
0.0043076277 -0.22207052 -0.099294245 -0.2373476 0.013798952 0.04591793 -0.0025628805 -0.17251778
0.07830407 -0.023046462 0.113530196 0.13179487 0.21680738 -0.01762557 0.124766886 0.025042914
-0.21556671 -0.1552229 0.17141724 -0.025890592 -0.17857932 0.11299205 -0.07995081 -0.04595806
-0.055708062 0.08794018 0.16852772 -0.25645328 0.032185197 0.12960707 -0.17892683 -0.0992737
-0.09193752 -0.1999268 0.19330285 0.055625677 0.032095585 0.07594614 -0.17889875 -0.257085
-0.15745163 -0.15524572 0.06332874 0.18911803 -0.06878503 0.016806126 0.034882188 -0.17773816
-0.03719262 -0.11927295 -0.08967191 0.0694486 -0.054389656 0.20258556 -0.15871257 -0.2421965
-0.2158772 0.064335115 0.12212149 -0.16781378 0.16377658 -0.011117816 -0.21904004 0.17422257
0.13109048 0.01839014 0.047244012 0.20858318 0.21131301 0.18045574 0.19083905 -0.16480055
-0.100077845 0.05298247 0.07118862 -0.23772568 -0.14504385 0.064496756 0.06348938 -0.20780209
-0.02797685 -0.13894486 -0.059421718 0.2859507 0.20400143 0.13569808 0.217596 -0.11519644
-0.21398959 0.20144567 0.08042359 -0.037717965 0.14921907 0.14733039 -0.08545923 0.0036364903
-0.22026898 0.1284182 -0.06947692 0.2463798 0.07821477 0.15088446 -0.21669829 0.18737411
-0.111881554 -0.002453448 -0.12658322 -0.16632469 0.012854613 0.1876291 0.15953952 -0.06657872
-0.13343382 -0.0032947063 0.17380677 0.02054852 -0.09620845 -0.00471783 0.08000499 0.18656737
-0.13892178 -0.24043193 -0.14867978 0.24677783 0.18395323 -0.12241399 -0.064955175 0.2278969
0.028821284 -0.23589708 0.021835804 0.1785463 0.016633341 0.007428229 -0.24186796 -0.010311186
0.07576513 -0.0525589 -0.21529573 -0.14188105 -0.091516435 0.18228728 -0.059237123 0.14997697
0.2237547 -6.66976e-05 0.24929148 -0.22694802 -0.040994525 0.24902576 -0.16843462 0.086684465
-0.0019050837 -0.13648313 -0.06824434 -0.10773504 -0.23271018 -0.14655232 -0.11044502 0.16436958
0.061417162 -0.23184514 0.0783391 0.045818746 -0.22316831 -0.0760138 0.12682742 -0.13207448
-0.22378772 0.15748292 0.038508773 -0.14922023 0.14149427 -0.13453263 0.016512513 -0.043442488
-0.15429276 -0.061508358 -0.17841923 0.124158084 -0.16613293 0.16721761 0.16399395 -0.21812505
-0.1114741 -0.02982521 0.22677964 -0.10140729 -0.10778999 0.16061544 -0.15915751 -0.095297515
-0.10404605 0.11767864 -0.19064069 0.07532549 0.21472287 0.2005493 0.13728786 0.17659557
00000000: 443a 283e 48ab 4abe 00ac a23d 90d7 28bd
00000010: c025 d5bd b895 1ebe a46b 6cbe 9c4f 11be
00000020: a88f 96bd c84d ddbd 70b3 413e 884e 6fbe
00000030: 4870 e23d 5c52 0dbe 6071 513e 1083 a93d
00000040: 7446 2d3e 4838 43be 3058 56bd ac13 033e
00000050: 302e 863d 60fe 76be 8069 41be 0080 783a
00000060: e49a 3f3e 780c 74be 8095 f93b f0bf 7cbe
00000070: a05b 96bc 2088 b5bd 8cf7 793e 00ae 233e
00000080: f87d 1ebe 68b6 183e 14ea 72be 5cce 343e
00000090: 808e 863b 542a 003e e0e4 8b3d a03b 373d
000000a0: c03a b9bc 4089 f3bd f80c b2bd 30d4 97bd
000000b0: d88b 873d 7016 683e 0019 4cbe 1037 763d
000000c0: 0402 143e e8d0 3dbe 24d4 14be c03b 7cbe
000000d0: 40fb fe3d 684c 3cbe 6ca1 5b3e 1077 ccbd
000000e0: 0027 8d3b 7466 63be c85a cbbd 400b 73be
000000f0: 0015 623c 7014 3c3d 00f6 27bb 80a8 30be
00000100: e25d a03d efcb bcbc 8582 e83d 3cf5 063e
00000110: c102 5e3e 8063 90bc c885 ff3d cc26 cd3c
00000120: 85bd 5cbe c0f2 1ebe 0088 2f3e 8218 d4bc
00000130: 7fdd 36be 6068 e73d 40bd a3bd 853e 3cbd
00000140: 232e 64bd fb19 b43d 8892 2c3e d84d 83be
00000150: a0d4 033d b7b7 043e 9838 37be 0250 cbbd
00000160: bd49 bcbd 9cb9 4cbe 2ff1 453e c0d7 633d
00000170: a976 033d a689 9b3d 3c31 37be a5a0 83be
00000180: 003b 21be bcf8 1ebe 80b2 813d 28a8 413e
00000190: 2adf 8cbd 00ad 893c a0e0 0e3d fe00 36be
000001a0: 4a57 18bd 6045 f4bd e8a5 b7bd 113b 8e3d
000001b0: b0c7 5ebd 9772 4f3e 8c85 22be 5c02 78be
000001c0: ea0e 5dbe 21c2 833d d51a fa3d 60d7 2bbe
000001d0: 0cb5 273e 8027 36bc 084c 60be 6767 323e
000001e0: 953c 063e eba6 963c f082 413d d496 553e
000001f0: 7062 583e 64c9 383e 506b 433e 7ac1 28be
00000200: 9df5 ccbd 2504 593d 57cb 913d 5c6e 73be
00000210: 6086 14be e016 843d b806 823d 12ca 54be
00000220: b52f e5bc 9047 0ebe 3064 73bd 2168 923e
00000230: c0e5 503e 70f4 0a3e 7cd1 5e3e 1cec ebbd
00000240: 1620 5bbe c647 4e3e 20b5 a43d 277e 1abd
00000250: e2cc 183e c7dd 163e 4005 afbd 2f52 6e3b
00000260: 318e 61be 1080 033e ea49 8ebd fc4a 7c3e
00000270: 112f a03d 7581 1a3e 28e6 5dbe 00df 3f3e
00000280: 2822 e5bd 07ca 20bb 089f 01be 0551 2abe
00000290: 289c 523c d821 403e 545e 233e 6d5a 88bd
000002a0: e0a2 08be 00ec 57bb 67fa 313e 5f55 a83c
000002b0: f008 c5bd 0798 9abb a8d9 a33d 840b 3f3e
000002c0: 8341 0ebe ca33 76be 833f 18be 54b3 7c3e
000002d0: 3c5e 3c3e 30b4 fabd 3807 85bd ce5d 693e
000002e0: 9d1a ec3c 018f 71be 00e1 b23c d7d4 363e
000002f0: a542 883c 8068 f33b 3cac 77be 40f0 28bc
00000300: c02a 9b3d 0048 57bd 7c76 5cbe 4449 11be
00000310: f86c bbbd 84a9 3a3e a0a2 72bd 9093 193e
00000320: f41f 653e 00e0 8bb8 4446 7f3e 1065 68be
00000330: e0e9 27bd 9c00 7f3e 207a 2cbe a087 b13d
00000340: 00b4 f9ba 3cc2 0bbe b0c3 8bbd 30a4 dcbd
00000350: 944b 6ebe d011 16be 0031 e2bd 8050 283e
00000360: 9090 7b3d d068 6dbe 4070 a03d 70ac 3b3d
00000370: 3c86 64be 20ad 9bbd 0cdf 013e 883e 07be
00000380: 9c28 65be 3443 213e 60bb 1d3d 30cd 18be
00000390: e0e3 103e ecc2 09be 4045 873c c0f0 31bd
000003a0: ecfe 1dbe 30f0 7bbd 88b3 36be 9846 fe3d
000003b0: c01e 2abe 183b 2b3e 08ee 273e 2c5c 5fbe
000003c0: 884c e4bd 0054 f4bc ec38 683e a0ae cfbd
000003d0: 00c1 dcbd 6078 243e 30fa 22be 582b c3bd
000003e0: 1816 d5bd 8001 f13d 5037 43be 4044 9a3d
000003f0: 50e0 5b3e cc5c 4d3e 3095 0c3e 78d5 343e

arith.constant2 f4 [3]
-0.04263629 -0.0072549977 0.06402079
00000000: 64a3 2ebd 55bb edbb 551d 833d

sequential_1/dense_1_2/Add/ReadVariableOp f4 [32]
0.0 0.019200105 0.03799844 0.0 0.0 0.0 -0.06370435 0.042645045
-0.009461893 0.014686425 0.05479368 -0.056246728 -0.03616321 0.0 -0.004448566 0.0
0.055018157 0.0 0.0 0.0 0.0 0.0 -0.012840285 0.0
-0.0364654 -0.009922478 0.0 -0.03656946 -0.0740279 0.0 -0.0143869 0.0
00000000: 0000 0000 8a49 9d3c 41a4 1b3d 0000 0000
00000010: 0000 0000 0000 0000 6d77 82bd 92ac 2e3d
00000020: 0e06 1bbc 559f 703c 566f 603d f862 66bd
00000030: e01f 14bd 0000 0000 47c5 91bb 0000 0000
00000040: b85a 613d 0000 0000 0000 0000 0000 0000
00000050: 0000 0000 0000 0000 0f60 52bc 0000 0000
00000060: be5c 15bd e491 22bc 0000 0000 dcc9 15bd
00000070: f19b 97bd 0000 0000 08b7 6bbc 0000 0000

sequential_1/dense_1/Add/ReadVariableOp f4 [64]
0.05615718 0.039693076 -0.062121738 0.0 0.08449147 0.0 0.0 -0.015412493
-0.018501 0.0 0.0 -0.016217377 0.040161695 0.0 0.0 -0.020144133
-0.044463128 0.024744527 0.0 -0.05753538 -0.015643299 0.03286636 0.0 0.06860974
-0.02155107 0.0 -0.038094345 0.0 0.009678496 0.015271047 0.0 -0.07038996
0.0 0.012071389 0.0 -0.02694326 -0.013279941 0.0 0.0 -0.033043988
-0.04876496 0.0 -0.08806398 0.056300662 0.0 0.019141156 0.0 0.0
-0.14373417 0.07435254 0.005010508 0.0 0.0 0.0 0.0 -0.036078777
-0.017034374 -0.03398683 0.0 -0.04778542 0.0060642436 0.0 0.0 -0.036733292
00000000: 1205 663d 3595 223d 5d73 7ebd 0000 0000
00000010: dd09 ad3d 0000 0000 0000 0000 ae84 7cbc
00000020: 698f 97bc 0000 0000 0000 0000 4eda 84bc
00000030: 9780 243d 0000 0000 0000 0000 4f05 a5bc
00000040: f81e 36bd 09b5 ca3c 0000 0000 38aa 6bbd
00000050: 6026 80bc e09e 063d 0000 0000 4383 8c3d
00000060: df8b b0bc 0000 0000 d108 1cbd 0000 0000
00000070: 8e92 1e3c 6a33 7a3c 0000 0000 9d28 90bd
00000080: 0000 0000 13c7 453c 0000 0000 1db8 dcbc
00000090: 1c94 59bc 0000 0000 0000 0000 2259 07bd
000000a0: c4bd 47bd 0000 0000 e35a b4bd 869b 663d
000000b0: 0000 0000 eacd 9c3c 0000 0000 0000 0000
000000c0: 0d2f 13be 2546 983d 302f a43b 0000 0000
000000d0: 0000 0000 0000 0000 0000 0000 57c7 13bd
000000e0: ac8b 8bbc c635 0bbd 0000 0000 a5ba 43bd
000000f0: 90b6 c63b 0000 0000 0000 0000 a675 16bd

sequential_1/dense_1/MatMul f4 [64, 3]
0.32211298 -0.108281806 0.17707747 0.22508395 -0.2855249 0.18536128 -0.11736697 -0.015934112
0.29007122 0.2640555 -0.11054008 -0.16660623 0.33830482 0.013557271 0.16496581 0.25635082
0.20283288 -0.23618889 -0.25275818 -0.21461692 -0.21501717 0.071574576 0.22661385 0.10782509
0.23625627 0.20065565 0.04844841 -0.2022323 0.08583674 -0.012960821 -0.04071006 -0.20942262
-0.01094228 0.31369635 -0.04333498 0.011721431 0.2675312 0.19031686 0.17151715 0.120085716
-0.26298475 -0.27342483 -0.10705589 0.22386056 -0.20396596 0.123206556 -0.17366415 6.220562e-05
-0.21694808 -0.14968486 0.21063486 -0.25583816 0.24846895 0.25228545 -0.26766196 0.04198304
-0.22870275 -0.25691172 0.20776168 0.10387967 -0.20226762 -0.19388929 0.010124562 0.09160525
0.16942996 0.07618222 0.029995948 0.074703336 -0.17099139 -0.1512086 0.21645138 0.20743053
-0.089462906 0.115316465 -0.016914558 0.24270177 -0.04945004 -0.022034079 -0.09099132 -0.24765238
0.23039968 0.2472657 0.2983622 -0.1436714 -0.15092976 -0.17671332 0.24196881 -0.038198538
0.21990836 0.024727046 -0.041962355 -0.13908125 -0.16102216 -0.26315024 -0.19507614 0.25318626
0.1493321 0.047739863 -0.08130553 -0.056303315 -0.32811716 0.24368168 0.22368509 0.04092288
-0.08580014 -0.22295567 0.15354818 0.01897848 -0.02003788 0.08461618 0.15695058 0.22323823
-0.22920355 -0.2499157 -0.05891785 -0.19172347 -0.08055282 -0.20228511 -0.19170257 0.15121478
0.20813799 -0.10091833 0.18653722 0.123110145 0.2991537 -0.14001584 0.10540879 -0.021481771
0.26596907 -0.16768353 0.102282725 0.054071993 0.1758351 -0.2816616 -0.014862955 0.27541932
0.020514278 0.14218569 0.16834697 -0.23571457 -0.15806346 -0.22229427 0.054903775 -0.07218248
-0.29838115 -0.08638403 0.0737902 0.011308158 0.13947055 0.26534313 0.28247425 -0.17798306
0.06411752 -0.22647814 -0.20823497 -0.039742887 0.287009 -0.21598794 -0.10478933 -0.09200665
0.09231943 -0.074093446 0.048262328 0.12063715 -0.25380957 0.15264389 -0.19472174 0.097125515
0.110339426 0.30331835 0.08402147 -0.22932312 0.19854508 0.2692572 0.21943563 0.017932236
-0.251043 -0.07369285 0.05172306 0.24609077 0.2814514 0.16754816 -0.022840904 -0.1637338
0.25363111 -0.12896311 0.08180916 -0.11989842 -0.25793472 0.07095995 -0.2809959 0.265579
00000000: feeb a43e dac2 ddbd cc53 353e 687c 663e
00000010: 5230 92be 59cf 3d3e 185e f0bd 4188 82bc
00000020: 3784 943e 4832 873e d662 e2bd d39a 2abe
00000030: 4a36 ad3e 511f 5e3c ccec 283e 6a40 833e
00000040: 6cb3 4f3e 80db 71be 8569 81be 8ac4 5bbe
00000050: 762d 5cbe b195 923d 760d 683e 67d3 dc3d
00000060: 2aed 713e ad78 4d3e d771 463d fc15 4fbe
00000070: 2ccb af3d a059 54bc 98bf 26bd e272 56be
00000080: 4047 33bc cf9c a03e 0580 31bd 3f0b 403c
00000090: d9f9 883e 6ce2 423e 31a2 2f3e 80ef f53d
000000a0: f0a5 86be 57fe 8bbe 1e40 dbbd b43b 653e
000000b0: 74dc 50be b853 fc3d 04d5 31be 6374 8238
000000c0: a327 5ebe fd46 19be aab0 573e 38fd 82be
000000d0: a56e 7e3e 8f2b 813e fd0a 89be 68f6 2b3d
000000e0: 0e31 6abe ef89 83be 7abf 543e ddbe d43d
000000f0: 3e1f 4fbe ea8a 46be 7ee1 253c 899b bb3d
00000100: 0c7f 2d3e 6c05 9c3d 10ba f53c 10fe 983d
00000110: 5e18 2fbe 6dd6 1abe 6ea5 5d3e ab68 543e
00000120: 5438 b7bd 0a2b ec3d 6690 8abc d086 783e
00000130: 208c 4abd d080 b4bc a859 babd 9698 7dbe
00000140: e5ed 6b3e 3833 7d3e eec2 983e 981e 13be
00000150: 558d 1abe 56f4 34be acc6 773e 1276 1cbd
00000160: a82f 613e 6090 ca3c b8e0 2bbd 516b 0ebe
00000170: fee2 24be a1bb 86be 0ac2 47be a1a1 813e
00000180: 84ea 183e e08a 433d 8483 a6bd 4e9e 66bd
00000190: f9fe a7be b187 793e b40d 653e c09e 273d
000001a0: fcb7 afbd 7e4e 64be bc3b 1d3e c278 9b3c
000001b0: 7b26 a4bc 3f4b ad3d a7b7 203e 9098 643e
000001c0: 56b4 6abe e7e9 7fbe d853 71bd 2853 44be
000001d0: e0f8 a4bd d423 4fbe ae4d 44be 0cd8 1a3e
000001e0: 2022 553e 45ae cebd 9d03 3f3e 2c21 fc3d
000001f0: ac2a 993e 5060 0fbe 90e0 d73d 8afa afbc
00000200: 192d 883e 3bb5 2bbe 9b79 d13d 987a 5d3d
00000210: 1e0e 343e f335 90be c083 73bc c303 8d3e
00000220: 8f0d a83c 2099 113e 2663 2c3e 295f 71be
00000230: 63db 21be 1ca1 63be c8e2 603d 68d4 93bd
00000240: 6ac5 98be 1cea b0bd 511f 973d da45 393c
00000250: 5ed1 0e3e 0edb 873e 77a0 903e 3141 36be
00000260: 0c50 833d e3e9 67be 8c3b 55be 70c9 22bd
00000270: d8f2 923e f12b 5dbe ca9b d6bd fc6d bcbd
00000280: f811 bd3d 4ebe 97bd b8ae 453d 9c10 f73d
00000290: 54f3 81be ae4e 1c3e 2365 47be bee9 c63d
000002a0: a3f9 e13d 8b4c 9b3e 7313 ac3d aed3 6abe
000002b0: 674f 4b3e 14dc 893e bcb3 603e a0e6 923c
000002c0: b588 80be 47ec 96bd 8fdb 533d 38ff 7b3e
000002d0: 661a 903e bf91 2b3e d91c bbbc d5a9 27be
000002e0: f0db 813e e80e 04be 908b a73d 4e8d f5bd
000002f0: 0510 84be 7353 913d b2de 8fbe f8f9 873e
