app/src/main/ml/tf_model.tflite (tflite, 11824 bytes, 6 tensors)

arith.constant f4 [3, 32]
0.20273003 -0.37822896 -0.21659401 0.37063065 -0.35525766 0.41090646 0.2520232 0.15725097
-0.26173443 -0.36857474 0.13010234 -0.3770884 0.13471732 0.22721913 -0.31898606 -0.3386997
0.28798357 0.38490888 -0.1075002 0.19827572 -0.035588313 0.102850705 -0.32526118 -0.0011301744
-0.1542716 -0.21031912 0.17155477 0.2784448 -0.10713622 0.4052309 -0.008193462 -0.20807451
0.30051824 -0.022192026 -0.10198361 0.33121756 0.16098738 0.34196576 0.37508616 0.13326463
-0.22988956 0.32977864 0.19200467 0.07610001 -0.18328837 0.27760407 0.1787413 0.3662943
0.24742278 -0.010873037 0.14564386 -0.067953706 -0.2730114 -0.26739275 0.3067427 0.055819396
0.217704 0.38211355 -0.2717689 0.35927954 -0.18951263 0.104647905 -0.11198756 0.18346733
-0.07583213 0.147349 0.2545645 0.3468723 0.10579122 -0.13796401 -0.14112833 -0.2161262
-0.20508689 -0.20210353 0.27922752 -0.023299236 0.30824247 0.26003152 -0.2750645 0.13932252
-0.38407412 -0.004765698 -0.35351062 -0.16180953 0.17368294 -0.05834472 0.115838796 -0.3409466
-0.2245146 -0.14379075 -0.27698845 0.2196444 -0.11927071 0.25588188 0.32290173 -0.12611888
00000000: 7698 4f3e 3aa7 c1be d2ca 5dbe 4dc3 bd3e
00000010: 55e4 b5be 5562 d23e 2f09 813e 6606 213e
00000020: 0e02 86be d4b5 bcbe 8c39 053e bb11 c1be
00000030: 56f3 093e 22ac 683e 2452 a3be 0c6a adbe
00000040: 9572 933e c712 c53e 1129 dcbd ca08 4b3e
00000050: 0dc5 11bd 64a3 d23d a288 a6be 5c22 94ba
00000060: 60f9 1dbe e55d 57be 0eac 2f3e 5190 8e3e
00000070: 3c6a dbbd 6d7a cf3e df3d 06bc 7c11 55be
00000080: 87dd 993e 0dcc b5bc c8dc d0bd 5995 a93e
00000090: e0d9 243e 2316 af3e 4b0b c03e 8676 083e
000000a0: 2b68 6bbe bfd8 a83e df9c 443e 52da 9b3d
000000b0: f2af 3bbe 1f22 8e3e f607 373e ed8a bb3e
000000c0: 665c 7d3e d324 32bc aa23 153e 502b 8bbd
000000d0: 26c8 8bbe b4e7 88be 610d 9d3e e1a2 643d
000000e0: cced 5e3e 63a4 c33e 4b25 8bbe 7df3 b73e
000000f0: 990f 42be a451 d63d bc59 e5bd dcde 3b3e
00000100: e04d 9bbd a8e2 163e 4756 823e 3f99 b13e
00000110: 11a9 d83d 7046 0dbe f283 10be 3050 5dbe
00000120: 4c02 52be 3af4 4ebe e9f6 8e3e 0ade bebc
00000130: f5d1 9d3e da22 853e 41d5 8cbe 90aa 0e3e
00000140: 5da5 c4be 9329 9cbb 58ff b4be 66b1 25be
00000150: f1d9 313e e0fa 6ebd e43c ed3d 8e90 aebe
00000160: 28e7 65be e23d 13be 6ed1 8dbe 76ea 603e
00000170: 3444 f4bd f302 833e 6053 a53e 4f25 01be

arith.constant1 f4 [32, 64]
-0.0052477717 0.18921375 -0.043744564 0.054293573 0.12793863 0.18452305 0.118382335 -0.09186882
0.04976958 0.21060616 -0.018728077 0.24736136 0.024241388 0.22490388 0.10889554 -0.08001953
-0.20236963 0.082787335 -0.07351649 -0.17142618 -0.11565024 -0.06401318 -0.16798621 0.24316347
-0.19340307 -0.19326198 -0.052475035 -0.2411735 0.22968513 -0.049302638 -0.16264719 0.007933021
-0.103905916 -0.079882145 0.08348048 -0.07118285 -0.2292828 -0.21018249 -0.076037884 0.23921227
-0.0878374 -0.1656 0.18191373 0.14139628 0.1538471 -0.100023866 0.16969877 -0.19284958
-0.12155658 0.24400574 0.21872312 0.05663365 -0.10827637 -0.16816914 -0.0054910183 -0.07161009
-0.07612252 -0.13487136 0.09674281 -0.0075229406 0.18925369 -0.09393686 -0.1663968 0.014554024
-0.096499324 -0.18245691 -0.034307376 0.09013516 -0.009575009 0.07559596 -0.25358927 0.120058894
0.19136828 0.118792094 0.17305273 0.22332728 -0.088021815 0.088882 0.032988667 0.17836612
-0.014252783 -0.20809138 0.10001204 -0.18030985 -0.17737496 -0.024518792 -0.040908456 -0.06891897
-0.052987322 0.10710055 0.119519174 -0.116372526 0.09935242 -0.2668332 -0.19441098 -0.008625999
0.0086497115 0.14588721 -0.05674085 0.03299202 0.042247474 -0.017635107 -0.2479474 0.06786389
-0.24930388 -0.01514624 0.11718881 -0.016157866 0.20327055 -0.008084834 0.049453318 -0.21884549
0.049059212 -0.07095432 -0.20007384 -0.17679745 -0.021684783 0.11723185 0.023538113 0.12820792
-0.060746014 -0.23462832 0.1958331 0.010403335 0.05443901 0.14824802 0.24599469 0.103995845
-0.22005314 0.059699357 0.011267841 -0.14089537 -0.06270456 0.19645125 -0.1242708 -0.091448784
-0.14952141 -0.16361183 0.009023428 0.1423943 -0.04592848 0.21492714 -0.21656746 0.022031605
-0.037531495 -0.02097851 0.08115643 -0.19185823 0.0032556057 0.04811883 0.05192125 0.16395265
0.075633764 -0.062686265 -0.10979438 0.12084252 0.24823171 0.04492438 0.18190694 -0.20392072
-0.16367006 -0.10846126 0.04255128 -0.19758844 -0.20904016 0.22413379 -0.00040322542 -0.23691541
0.2181375 -0.07304579 0.06473869 0.24872905 -0.14749825 -0.05265391 0.16901404 0.069788516
-0.16524333 0.21863627 -0.18829203 -0.103027046 0.14358586 0.12048411 -0.1856237 -0.21963632
-0.23631656 -0.24036765 -0.042211175 -0.247047 -0.038910806 -0.17179227 0.018081427 -0.13782859
-0.12487972 0.01586616 -0.057096243 0.20826435 0.24675661 -0.22967023 -0.15417993 -0.059695244
-0.046575308 0.12979054 -0.043642104 -0.036484182 0.24367422 0.23267621 -0.2161336 -0.0021307468
0.20782578 -0.09849137 -0.20724523 0.2188623 0.23675221 -0.06811887 0.21865153 0.19044048
0.16665041 -0.17802441 0.13090974 -0.2187745 -0.010667622 0.077512085 0.037857294 -0.11245996
-0.20926154 -0.071765184 -0.07121891 -0.23252827 -0.14055979 -0.07005012 0.2147305 0.14637232
0.14811665 -0.22933847 0.20498365 0.1217646 -0.054657757 0.16557884 0.16952538 0.10350847
-0.09067726 -0.15292871 -0.12766606 0.2035836 -0.16575062 -0.07278299 -0.13539422 -0.18714368
-0.12685144 0.15746748 -0.21473527 -0.034179628 -0.025277674 -0.24823862 -0.095404446 0.19096726
00000000: 80f5 abbb 40c1 413e 802d 33bd f062 5e3d
00000010: 5802 033e 9cf3 3c3e 7072 f23d b825 bcbd
00000020: 30db 4b3d 24a9 573e a06b 99bc 4c4c 7d3e
00000030: e095 c63c 344d 663e a004 df3d 48e1 a3bd
00000040: fc39 4fbe 688c a93d d08f 96bd 588a 2fbe
00000050: 08da ecbd 5819 83bd 9404 2cbe d8ff 783e
00000060: 740b 46be 78e6 45be 10f0 56bd 30f6 76be
00000070: 9432 6b3e 90f1 49bd fc8c 26be 80f9 013c
00000080: a0cc d4bd 4099 a3bd d0f7 aa3d 50c8 91bd
00000090: 1cc9 6abe 143a 57be c0b9 9bbd 10f4 743e
000000a0: 18e4 b3bd 0c93 29be 9847 3a3e 30ca 103e
000000b0: 188a 1d3e 50d9 ccbd 84c5 2d3e 5c7a 45be
000000c0: a8f2 f8bd a4dc 793e f4f8 5f3e b0f8 673d
000000d0: 00c0 ddbd 8834 2cbe 00ee b3bb 50a8 92bd
000000e0: 20e6 9bbd b81b 0abe 1821 c63d 0083 f6bb
000000f0: b8cb 413e f861 c0bd ec63 2abe 0074 6e3c
00000100: 70a1 c5bd fcd5 3abe e485 0cbd c898 b83d
00000110: 80e0 1cbc 0ed2 9a3d 74d6 81be 70e1 f53d
00000120: 0cf6 433e 4549 f33d bc34 313e e8af 643e
00000130: c844 b4bd c407 b63d 201f 073d 9ca5 363e
00000140: 8184 69bc e815 55be 1dd3 cc3d 25a3 38be
00000150: c8a1 35be a2db c8bc a08f 27bd 6425 8dbd
00000160: 3c09 59bd 8857 db3d 78c6 f43d b854 eebd
00000170: 4879 cb3d 5c9e 88be ac13 47be 1054 0dbc
00000180: 85b7 0d3c 7563 153e 1869 68bd a422 073d
00000190: b00b 2d3d 8077 90bc ece5 7dbe 39fc 8a3d
000001a0: 8449 7fbe ef27 78bc b000 f03d 805d 84bc
000001b0: 2826 503e 4076 04bc 908f 4a3d 0819 60be
000001c0: 50f2 483d 8050 91bd 28e0 4cbe 640a 35be
000001d0: 49a4 b1bc 4117 f03d 00d3 c03c f048 033e
000001e0: d0d0 78bd 6842 70be 7988 483e c072 2a3c
000001f0: 70fb 5e3d 54ce 173e 08e6 7b3e c6fb d43d
00000200: 9c55 61be 5087 743d c09c 383c e046 10be
00000210: 406b 80bd 842a 493e b081 febd 8049 bbbd
00000220: 241c 19be dc89 27be 00d7 133c d0cf 113e
00000230: 801f 3cbd dc15 5c3e dcc3 5dbe a07b b43c
00000240: a0ba 19bd 20db abbc 5835 a63d 7c76 44be
00000250: 005c 553b 4018 453d 60ab 543d 34e3 273e
00000260: e0e5 9a3d a861 80bd e0db e0bd 487c f73d
00000270: 7430 7e3e a002 383d d045 3a3e 98d0 50be
00000280: 2099 27be f020 debd 404a 2e3d a054 4abe
00000290: a00e 56be 5483 653e 0068 d3b9 f499 72be
000002a0: 705f 5f3e 0899 95bd b895 843d d4b2 7e3e
000002b0: c809 17be a0ab 57bd 0412 2d3e 48ed 8e3d
000002c0: 8c35 29be 30e2 5f3e a0cf 40be d8ff d2bd
000002d0: 2c08 133e 60c0 f63d 2414 3ebe 58e8 60be
000002e0: f8fc 71be f022 76be a0e5 2cbd e4f9 7cbe
000002f0: f060 1fbd 50ea 2fbe 801f 943c f022 0dbe
00000300: f0c0 ffbd c0f9 813c c0dd 69bd 4043 553e
00000310: c4ad 7c3e ac2e 6bbe 58e1 1dbe 0083 74bd
00000320: c0c5 3ebd d0e7 043e 10c2 32bd 7070 15bd
00000330: bc85 793e ac42 6e3e 2052 5dbe 00a4 0bbb
00000340: 48d0 543e d8b5 c9bd 1838 54be 701d 603e
00000350: 2c6f 723e e881 8bbd 30e6 5f3e d402 433e
00000360: 68a6 2a3e 084c 36be 340d 063e 6c06 60be
00000370: 40c7 2ebc a8be 9e3d 4010 1b3d 6851 e6bd
00000380: a848 56be a0f9 92bd 38db 91bd e41b 6ebe
00000390: e8ee 0fbe 7076 8fbd 50e2 5b3e a0e2 153e
000003a0: e4ab 173e b4d7 6abe 3ce7 513e b85f f93d
000003b0: d0e0 5fbd 808d 293e 1098 2d3e 40fc d33d
000003c0: 00b5 b9bd 5899 1cbe e4ba 02be 3878 503e
000003d0: 88ba 29be 400f 95bd c8a4 0abe 98a2 3fbe
000003e0: 58e5 01be 283f 213e 90e3 5bbe f0ff 0bbd
000003f0: 2013 cfbc 4432 7ebe 6863 c3bd ec8c 433e

arith.constant2 f4 [3]
-0.101234406 0.028162166 0.12573601
00000000: fc53 cfbd 58b4 e63c f1c0 003e

sequential_1/dense_1_2/Add/ReadVariableOp f4 [32]
0.0 -0.024970269 0.0 0.0 -0.011921501 0.0 0.0 0.0
-0.016979104 -0.024002591 -0.013706317 -0.0078662215 0.0 -0.013975163 -0.023710892 -0.024062313
0.0 -0.102028474 -0.00986104 0.0 0.04259698 0.0 0.0 -0.01851195
0.010256645 0.0 -0.02335452 0.0 0.0 0.0 0.09360661 -0.021204794
00000000: 0000 0000 738e ccbc 0000 0000 0000 0000
00000010: 6652 43bc 0000 0000 0000 0000 0000 0000
00000020: c317 8bbc 15a1 c4bc 7690 60bc 53e1 00bc
00000030: 0000 0000 15f8 64bc 583d c2bc 541e c5bc
00000040: 0000 0000 4ef4 d0bd 3390 21bc 0000 0000
00000050: 2c7a 2e3d 0000 0000 0000 0000 5fa6 97bc
00000060: 7d0b 283c 0000 0000 fa51 bfbc 0000 0000
00000070: 0000 0000 0000 0000 d3b4 bf3d adb5 adbc

sequential_1/dense_1/Add/ReadVariableOp f4 [64]
0.07120803 0.0 -0.073404275 0.0 0.0 0.07334905 0.010987503 0.0
0.0 -0.0060050497 0.0 0.0 -0.032019496 -0.012776711 0.0 0.0
-0.039347786 0.0 -0.0015553671 0.08603062 0.0 0.055509955 0.0 0.088328935
-0.06340566 0.0 0.0 0.0 0.0 -0.09183685 0.0 -0.013707829
-0.07110865 0.09111454 0.0069929706 0.019901799 0.0 0.0 -0.020267628 -0.07472449
0.0 -0.050984453 0.0 0.0 0.0 0.0 0.0 0.0007554605
0.0 0.0 0.0 -0.011471674 0.08924836 -0.011835055 0.0 0.0
0.0 0.0 -0.03824691 0.0 0.0 -0.012433096 0.0 -0.010191431
00000000: 84d5 913d 0000 0000 fb54 96bd 0000 0000
00000010: 0000 0000 0738 963d ee04 343c 0000 0000
00000020: 0000 0000 02c6 c4bb 0000 0000 0000 0000
00000030: e026 03bd 6955 51bc 0000 0000 0000 0000
00000040: 252b 21bd 0000 0000 76dd cbba d230 b03d
00000050: 0000 0000 685e 633d 0000 0000 cde5 b43d
00000060: d4da 81bd 0000 0000 0000 0000 0000 0000
00000070: 0000 0000 f514 bcbd 0000 0000 cd96 60bc
00000080: 69a1 91bd 439a ba3d 4a25 e53b 1909 a33c
00000090: 0000 0000 0000 0000 4c08 a6bc 2709 99bd
000000a0: 0000 0000 13d5 50bd 0000 0000 0000 0000
000000b0: 0000 0000 0000 0000 0000 0000 190a 463a
000000c0: 0000 0000 0000 0000 0000 0000 b0f3 3bbc
000000d0: d8c7 b63d d2e7 41bc 0000 0000 0000 0000
000000e0: 0000 0000 0000 0000 cba8 1cbd 0000 0000
000000f0: 0000 0000 2fb4 4bbc 0000 0000 f6f9 26bc

sequential_1/dense_1/MatMul f4 [64, 3]
0.32788515 0.2526815 0.08117142 0.061421216 0.0041131675 -0.10852872 0.16692163 -0.10645056
0.14026302 -0.015914112 -0.041086853 -0.046824545 -0.20048407 0.123057395 -0.25256133 0.35017547
-0.15536663 0.02536633 0.19743414 -0.12512423 0.2270492 0.010864228 0.118932754 -0.06823532
0.08541292 -0.098449886 -0.25492787 -0.25380346 -0.058921605 0.0056312396 0.071138084 0.15433013
-0.13762626 0.012701631 0.044363916 -0.21160862 0.14825366 0.16706827 0.22712365 -0.050155476
-0.22592235 0.27021977 0.13299024 -0.22426638 -0.0841814 0.19753122 -0.06473124 -0.09378448
0.12781286 -0.3360977 0.031432368 -0.1904203 0.17315271 -0.2594182 0.21975276 -0.0030506107
0.14918034 -0.043894533 0.2789602 0.11587232 -0.060682207 -0.2788664 -0.033712387 -0.027112573
-0.07122028 0.09508014 0.29389185 -0.14321555 -0.06673011 0.23076998 -0.27758765 0.23717651
0.17095983 -0.30906576 0.23905052 0.22628123 -0.06411773 -0.29749903 0.17805535 0.2849906
-0.28717205 0.07556707 0.20716226 -0.14345492 0.08496928 -0.16384538 -0.21961331 0.120397165
0.20608807 0.18226403 0.113461465 -0.051707044 -0.29891255 0.01576583 0.023432286 0.08219656
-0.2065841 -0.06437984 0.13810688 0.34640327 -0.20108247 0.1859247 0.25864542 -0.023839569
0.082545444 -0.06298659 -0.058995 0.239521 0.2642703 -0.043370813 -0.0823953 0.06276569
0.1850287 -0.06995736 -0.24317798 0.2563342 -0.04077243 -0.34845647 0.12761195 0.19031912
-0.029790848 0.0347223 -0.16611679 0.006156723 0.14517435 0.20011039 0.27733833 -0.003349483
-0.12795748 -0.0043379962 -0.25405607 -0.16031568 0.048561335 -0.16593187 -0.18026692 0.078446716
-0.22335134 -0.22893122 0.2880299 -0.13373797 -0.061036363 -0.21733736 -0.25334927 0.030328337
-0.038470894 -0.22367969 -0.23081556 0.08454177 0.22907877 -0.058984563 -0.2189238 0.026220739
-0.24274036 0.17698376 -0.16794474 0.08708277 0.3432932 -0.18641478 0.2166307 -0.084992275
0.27661544 0.21697292 0.18163791 0.049090326 -0.20454916 -0.24203974 -0.29329386 -0.23659778
-0.2606911 0.15327474 -0.21353516 -0.1709909 -0.09932597 -0.021157503 -0.19124979 -0.2678237
0.305316 -0.113156945 0.10861626 -0.28991657 -0.017126799 -0.28979614 0.0045332015 0.07109389
-0.2998231 0.19121924 -0.14883074 0.20876992 -0.26453564 0.011917012 -0.26784995 0.1050058
00000000: 90e0 a73e 785f 813e 343d a63d d094 7b3d
00000010: c0c7 863b 4e44 debd 81ed 2a3e c002 dabd
00000020: 1ca1 0f3e 505e 82bc b04a 28bd 18cb 3fbd
00000030: b24b 4dbe 8405 fc3d b84f 81be 334a b33e
00000040: 6e18 1fbe 0dcd cf3c 2d2c 4a3e 9120 00be
00000050: 967f 683e e0ff 313c 0493 f33d f6be 8bbd
00000060: f8ec ae3d 18a0 c9bd e885 82be 87f2 81be
00000070: c857 71bd 4386 b83b d8b0 913d b808 1e3e
00000080: e6ed 0cbe 801a 503c f0b6 353d eeaf 58be
00000090: cfcf 173e f213 2b3e 1a93 683e d46f 4dbd
000000a0: 3058 67be 3f5a 8a3e 982e 083e 16a6 65be
000000b0: 4c67 acbd a045 4a3e d091 84bd 1412 c0bd
000000c0: 60e1 023e ff14 acbe 3abf 003d 8afd 42be
000000d0: f24e 313e 76d2 84be de06 613e c1ec 47bb
000000e0: bbc2 183e c1ca 33bd dfd3 8e3e 784e ed3d
000000f0: e88d 78bd 94c7 8ebe 0016 0abd 301b debc
00000100: f0db 91bd 60b9 c23d fe78 963e 19a7 12be
00000110: cca9 88bd f74e 6c3e f81f 8ebe 66de 723e
00000120: 1810 2f3e de3d 9ebe a9c9 743e 44b6 673e
00000130: 2850 83bd cb51 98be 2454 363e 4aea 913e
00000140: 3708 93be e8c2 9a3d 5822 543e d9e5 12be
00000150: 6004 ae3d 15c7 27be 50e2 60be ca92 f63d
00000160: c008 533e 6ca3 3a3e 7c5e e83d c4ca 53bd
00000170: 110b 99be 5827 813c 11f5 bf3c ac56 a83d
00000180: c88a 53be 94d9 83bd e46b 0d3e c55b b13e
00000190: 90e8 4dbe 0b63 3e3e 2c6d 843e 334b c3bc
000001a0: 960d a93d 1dff 80bd bea4 71bd fe44 753e
000001b0: 704e 873e 98a5 31bd debe a8bd 4c8b 803d
000001c0: 2a78 3d3e ce45 8fbd a603 79be 3c3e 833e
000001d0: fe00 27bd e368 b2be b5ac 023e 04e3 423e
000001e0: f00b f4bc f838 0e3d 851a 2abe 56be c93b
000001f0: 96a8 143e bde9 4c3e 4aff 8d3e 0083 5bbb
00000200: 4907 03be c025 8ebb a313 82be cb29 24be
00000210: 40e8 463d 0bea 29be e497 38be aca8 a03d
00000220: 37b6 64be f26c 6abe a878 933e 9bf2 08be
00000230: 4401 7abd af8d 5ebe ffb6 81be 2273 f83c
00000240: a893 1dbd 4a0c 65be ea5a 6cbe 3c24 ad3d
00000250: a093 6a3e cc99 71bd 902d 60be e0cc d63c
00000260: ee90 78be 3b3b 353e b5f9 2bbe 7458 b23d
00000270: 20c4 af3e 84e3 3ebe 70d4 5d3e 6e10 aebd
00000280: 8aa0 8d3e 262e 5e3e 4aff 393e f012 493d
00000290: 5675 51be 44d9 77be 9d2a 96be b046 72be
000002a0: 4e79 85be 0ef4 1c3e f6a8 5abe 3d18 2fbe
000002b0: 6a6b cbbd 8052 adbc fcd6 43be 3020 89be
000002c0: 6152 9c3e d4be e7bd 3472 de3d f26f 94be
000002d0: 804d 8cbc 2960 94be 408b 943b ac99 913d
000002e0: 6a82 99be face 433e 1667 18be c8c7 553e
000002f0: 3771 87be 923f 433c a123 89be 480d d73d
